Project/Assets/MLAgents_Visual/Brain-Model/SheepPigAgent.onnx (onnx, 198598 bytes, 12 tensors)

distribution.branches.0.bias f4 [2]
000000 c8 ae 98 bb c8 ae 98 3b
       -0.0046595074 0.0046595074

distribution.branches.0.weight f4 [2, 128]
000000 cd 8a ec 3c be ce ac 3c 40 f4 7e b9 2c ec 4f 3c
       0.02887478 0.021094676 -0.00024314318 0.012690585
000010 4d 3e dc 3a 8e 0e d6 bc d2 6c f9 3c 01 55 b8 3c
       0.0016803235 -0.026129987 0.030447397 0.02250147
000020 64 68 2b bd 9f e0 b8 bb 2c 37 bd bb 04 f7 0f bc
       -0.0418476 -0.0056420113 -0.0057743993 -0.00878692
000030 ab 43 3a 3c b2 01 81 bc 9e 16 0d bc 2d 5f ad 3c
       0.011368672 -0.015747879 -0.008611349 0.021163547
000040 f3 52 50 3b c4 2d ea bb 80 b9 94 bc 73 ac da bc
       0.0031787723 -0.007146569 -0.01815486 -0.026693558
000050 a1 18 b4 3c 7c fc d1 bc e7 62 ad 3c 58 9b 47 bc
       0.0219844 -0.02563309 0.021165324 -0.012183033
000060 30 59 5c 3c 5d 17 8c bc 4c d0 90 bc ec 58 d3 bc
       0.013448998 -0.017100984 -0.017677449 -0.025799237
000070 64 8a c7 3c e8 dc 9f bc 85 2e dc bc 1f ca d0 bc
       0.024357982 -0.019514516 -0.026877651 -0.025487004
000080 d1 5e a0 bc 97 b1 8d bc 16 bc a0 3c df 76 5e 3c
       -0.019576462 -0.017296595 0.019620936 0.013578146
000090 0e 51 b1 3c 31 fe 90 bc 16 dc 4b bb 65 59 3e 3c
       0.021645095 -0.017699333 -0.0031106523 0.011617993
0000a0 94 a4 76 bc 93 cd ce bc 8b 41 17 3c 36 2c f5 bb
       -0.015053887 -0.02524451 0.009231935 -0.007482077
0000b0 19 66 b2 3c 7a 04 88 3c f2 1e 41 bc 09 a0 9f 3c
       0.0217772 0.016603697 -0.011787163 0.01948549
0000c0 ed 97 cb bc 15 0a c0 bc 21 ab 5a bc 9a 78 9f 3c
       -0.024852717 -0.023442307 -0.013346464 0.019466687
0000d0 5d 3e 5e bc cf 2f 78 bb ef 4b 3f 3a f5 2e 8e bb
       -0.013564673 -0.0037870293 0.0007297387 -0.004339094
0000e0 de 15 0e bd fe ff f1 3b ba 5e cc bc c5 4e 89 bc
       -0.034688823 0.007385253 -0.024947513 -0.016761193
0000f0 1f db e2 bc 52 5c ee 3c a3 38 81 bc 27 e5 9d bc
       -0.027692376 0.029096756 -0.015774077 -0.019274307
000100 e5 37 b0 bc 52 84 0b bd fd b0 9e bc 44 dc 05 3d
       -0.021511028 -0.034061737 -0.019371504 0.032680765
000110 7f 99 9c ba 3c a2 bf 3c 94 a6 d6 bc cf e6 8f 3c
       -0.0011947601 0.023392789 -0.026202478 0.017566113
000120 7d a7 87 bc 54 c0 b9 bc f6 66 0c bc 55 03 aa bc
       -0.016559357 -0.022674717 -0.00856947 -0.020753542
000130 36 9c 31 bc ba 2a 36 bc 39 c2 45 3c e0 8f a9 3c
       -0.010840466 -0.011118585 0.012070232 0.020698488
000140 81 b1 77 bc cf d6 ba 3c 2a 16 43 3b 16 28 00 3c
       -0.015118004 0.022807507 0.002976785 0.007822057
000150 5b 31 4b 3b 03 63 a7 3b 7e d6 31 bc 90 59 b3 bc
       0.003100476 0.0051082387 -0.010854362 -0.021893293
000160 34 61 02 3b f6 e9 b5 3a 48 6a 54 3c 0b 3c 9f 3c
       0.0019894363 0.001387893 0.012964793 0.01943781
000170 e2 bf ba 3c 81 20 db 3c c1 1b 9e 3c c0 da 8a bc
       0.022796575 0.026748898 0.019300343 -0.016950011
000180 be c8 d4 3b 1e a7 16 3c 97 d9 c7 3c 11 15 65 3c
       0.006493657 0.009195117 0.024395747 0.013982073
000190 fa df 15 3c d6 59 95 3a 9e 8d 0f 3d cd 7f 94 bc
       0.009147638 0.0011394571 0.035047166 -0.018127346
0001a0 a5 1c e9 bb 11 5f 89 bc 1c b5 de bb 49 85 c5 bc
       -0.0071140104 -0.016768964 -0.0067964923 -0.024111407
0001b0 6b 36 71 bc 74 9b 09 3c 15 69 8a 3c fd 6b cc 3c
       -0.014722447 0.008398879 0.01689581 0.024953837
0001c0 b7 63 d1 3b 58 15 b6 bc 94 fa c0 3c fa f0 92 bc
       0.0063900608 -0.022226974 0.023556985 -0.017937172
0001d0 59 1c a5 bb df 51 c3 3c c4 b1 b3 3c 09 d8 91 bc
       -0.0050387797 0.02384275 0.021935351 -0.017803209
0001e0 53 6f d9 bb 56 46 b8 bc a6 a3 82 3b 7c 5d 81 3c
       -0.0066355853 -0.022494476 0.0039867936 0.015791647
0001f0 1c 54 af bc e2 64 9a bc 2b d9 82 bc e3 8d ae bc
       -0.021402411 -0.018846933 -0.015972694 -0.021307891
000200 6b e1 8e bc d2 75 20 bc e5 dc 8c 3c 8a f6 c2 3b
       -0.017441472 -0.009793716 0.017195174 0.0059498
000210 f1 0c a1 bc 62 d1 b3 3c 58 b8 dd bb 9c bb 48 bc
       -0.019659491 0.021950427 -0.0067663603 -0.012251761
000220 d6 52 cb 3b 22 85 9e 3a 5c 50 1e 3c 42 94 05 3c
       0.006204943 0.001209412 0.009662714 0.008153023
000230 88 3e 2e bc bb 22 ad 3c a6 69 16 3c 54 58 99 bc
       -0.010635026 0.021134725 0.009180462 -0.018718876
000240 5f ba c0 bc 09 65 72 3c 9e aa 9d 3c ed 0a a6 3b
       -0.023526369 0.0147945965 0.019246396 0.0050672204
000250 8d 2e ed bb d6 9c 08 3d cd a7 74 bc c0 98 23 3d
       -0.0072382153 0.033352695 -0.014932585 0.039940596
000260 e4 89 5e bc 3d 46 84 3c e3 5e 12 3d 39 09 dc 3c
       -0.01358268 0.016146773 0.035735022 0.026859866
000270 76 99 a4 bc 46 f4 ae 3b 78 b8 36 3c d0 3b f3 3b
       -0.020092707 0.0053391783 0.011152379 0.0074229017
000280 ba 4c ad 3c f7 8f 78 3c 57 56 7c bc 26 a1 f0 bb
       0.02115475 0.015171043 -0.015401444 -0.007343429
000290 fa 5f 84 bc 01 e2 88 3c b5 59 87 3c 49 55 b7 bc
       -0.016159046 0.01670933 0.016522268 -0.022379534
0002a0 dd 08 b7 3c 48 c6 59 3c 1c ee 7c bc 92 2d df 3b
       0.022343094 0.013291903 -0.015437629 0.0068108523
0002b0 a3 c1 9b bc d8 14 c2 bc 64 e5 15 3d a1 e4 9e bc
       -0.019013232 -0.02369158 0.036595717 -0.019396128
0002c0 86 22 d4 3c 30 8a a1 3c 84 32 fa 3c 91 0c d9 bc
       0.025895368 0.019719213 0.030541666 -0.02649525
0002d0 17 57 d8 3b a5 ca fe 3b 2f 3c 7f bc ed 06 2a 3c
       0.006602179 0.007775622 -0.015578314 0.010377628
0002e0 3f c2 1c 3c bc 9e 87 bc 3c 16 95 3c 3b 67 1c 3c
       0.009567796 -0.016555183 0.018199079 0.009546096
0002f0 fd 8a b8 3b 88 ec 5a bc 84 d1 df 3c af 7a a7 3c
       0.005631803 -0.0133620575 0.027321585 0.020444242
000300 5a 91 c7 3c 15 06 cf 3c 7b a8 83 3c 05 e5 a8 bc
       0.024361301 0.025271455 0.016071549 -0.020617018
000310 64 9b a6 3c f7 84 0a bc e7 cc 9c 3c 1e cd a0 bc
       0.020337768 -0.008454553 0.019140674 -0.019629057
000320 fd 3e a8 3c 10 c4 91 3c c8 30 01 3b 28 97 bb 3c
       0.020537848 0.017793685 0.0019712914 0.022899225
000330 ec 38 0f 3d 52 8f bb 3c 20 7e 75 bc 2c e2 78 bc
       0.034966394 0.022895489 -0.014983684 -0.015190642
000340 ef dc 8b 3c b6 51 47 3b 0e fc b9 bb 02 83 42 bc
       0.017073123 0.0030413694 -0.005675799 -0.011872055
000350 9e d2 83 bc 1c d2 1d bb 73 a2 a9 3c 3a fd 33 3c
       -0.016091641 -0.0024081534 0.020707345 0.010985667
000360 ff 04 8c bc e2 2e de bc dc 3d 89 bc 9a 7a 2e bc
       -0.017092226 -0.027121965 -0.01675313 -0.010649348
000370 f1 08 1b bc d6 94 e0 bc 86 e4 bb bc 48 d5 4d 3c
       -0.009462581 -0.02741472 -0.022936117 0.012563057
000380 31 b6 8f bc 5d 49 46 bc a8 c1 80 bb 06 b1 33 bb
       -0.01754293 -0.012102452 -0.0039293356 -0.0027418747
000390 86 b7 62 bc 88 72 b5 bb cd 5b 99 bc ad 71 d6 3c
       -0.013837701 -0.005537335 -0.018720532 0.026177252
0003a0 74 39 c2 3b 3e 62 67 3c 79 d7 9d bb d0 0d c4 3a
       0.005927259 0.014122544 -0.004816946 0.001495773
0003b0 8c 49 01 3d 80 5a 4a 3a d9 c2 77 bc 7f 80 8c bb
       0.03156428 0.0007719174 -0.015122139 -0.004287779
0003c0 c5 d3 14 3c 70 64 84 3c dd f7 94 bc e7 b9 be 3c
       0.009083693 0.016161174 -0.018184597 0.023282005
0003d0 c9 c4 31 bc a8 a3 7e bc 2f 31 94 bc 42 c3 ee 3c
       -0.01085014 -0.015541948 -0.018089859 0.02914584
0003e0 c4 8f 89 3c 16 92 56 3c 30 ff 05 bc 51 d5 ec bb
       0.016792186 0.013096353 -0.008178517 -0.0072275777
0003f0 85 21 bd 3c 2d 6a dc 3c a4 66 64 3c 86 b9 c4 3c
       0.023087272 0.026906097 0.013940487 0.024014246

network_body.linear_encoder.seq_layers.0.bias f4 [128]
000000 c9 a1 e1 bb 2a ee 75 3c a6 4f 88 3b a4 8a 75 3b
       -0.0068857414 0.015010396 0.0041598855 0.003746667
000010 d6 23 fe ba 98 d9 3d bc 7f 10 5f 3b 39 42 ab 3b
       -0.0019389342 -0.011587523 0.0034036932 0.0052264
000020 5f 57 66 3b af 49 7e 3c 89 6b cd bb 22 54 74 3c
       0.0035147292 0.015520497 -0.0062689227 0.014912637
000030 1a 98 1d bb f9 19 29 3c 8f 8a 50 3c 9f 01 58 3c
       -0.0024046958 0.010321134 0.012728347 0.01318398
000040 d3 37 ad 3b 8a 22 50 3b 74 91 12 3b 81 e5 95 3b
       0.005286196 0.0031758868 0.002236453 0.004574478
000050 52 93 3b 3c 61 14 04 bc 2c 85 f4 bb 6b 08 c6 bb
       0.011448698 -0.008061499 -0.0074621644 -0.006043484
000060 1b e8 a2 3b 22 df 54 3c b8 5c f5 3b 7e 24 0f bc
       0.004971517 0.012992652 0.0074878596 -0.008736728
000070 00 25 72 3c a7 2f 55 3b ec b5 25 3b a6 28 65 3c
       0.014779329 0.0032529624 0.0025285436 0.013986742
000080 1d 59 c8 bb 92 14 8a 3b 1e c3 2a 3c a0 87 54 3c
       -0.0061141388 0.004213878 0.010422496 0.012971789
000090 0e 90 de ba d9 e3 3e 3c 0b b8 07 bb 2b 97 00 3c
       -0.0016980188 0.011651003 -0.0020709063 0.007848541
0000a0 b2 c8 3c 3c 80 17 62 3c 6c 0b 4a 3c cc 96 01 bc
       0.011522459 0.013799548 0.012331825 -0.007909488
0000b0 96 4b 86 bb b2 2f 51 3c a4 ad ee 3b 34 9d c9 3b
       -0.004098366 0.012767719 0.007283883 0.0061527733
0000c0 86 c6 2e 3c b2 19 18 bc 12 e9 b4 ba dc 04 99 bb
       0.010667449 -0.00928347 -0.001380237 -0.0046697687
0000d0 d4 ae 9d ba 42 30 62 3c 04 53 4a 3c 93 28 4c 3c
       -0.0012030252 0.013805451 0.012348894 0.0124608455
0000e0 3b 8f 2f 3c a3 2b 05 3c 89 6d 41 3c fb c7 f6 3b
       0.010715301 0.00812808 0.0118059 0.0075311637
0000f0 5e 11 b2 3b e5 f7 63 3c 95 a1 3d 3c 8c 3a 05 3c
       0.0054341992 0.013914083 0.011574169 0.008131634
000100 85 ef be bb 0b 53 71 3c 72 9a 0c bc 30 8b d8 3b
       -0.005826893 0.014729272 -0.0085817445 0.0066083893
000110 5a 8e bb bb 01 8d 4d 3b 33 6e 2a 3b 4f b1 df 3b
       -0.0057237567 0.0031364562 0.0026005625 0.0068265568
000120 f6 36 86 3c cf be 55 3c 36 da 89 3c f4 3c 84 3c
       0.01638363 0.013045981 0.016827684 0.016142346
000130 a5 3c 92 bb 5a b0 40 3c 12 9f 11 bc 15 fa 33 3a
       -0.004462796 0.0117607955 -0.008888023 0.0006865573
000140 5e 09 4b 3c ee fa 17 3c 8b 95 6c 3c c5 a2 a2 bb
       0.01239237 0.009276135 0.014439951 -0.0049632513
000150 6e 16 0b bb b5 37 1b 3c e0 29 f7 3b 01 f7 5a 3c
       -0.0021223086 0.009473731 0.0075428337 0.013364554
000160 e3 8c 5c 3c 91 4d 9f 3b b1 ab 26 3c 3f 9b 78 3c
       0.013461324 0.0048615416 0.01017277 0.015173732
000170 1d ce f5 3a b5 1c 18 3c d2 b2 a8 3b 9f c5 83 3c
       0.0018753443 0.009284188 0.00514827 0.016085444
000180 85 40 5e 3c 70 ab 4d 3c 5a b8 c1 3b 19 df 19 3c
       0.013565187 0.012553081 0.005911869 0.0093915695
000190 8f 60 33 3c 17 eb 89 39 b6 75 6f 3c 9d de 7c 3c
       0.010948314 0.00026305832 0.014615467 0.0154339345
0001a0 1a 17 19 3b e8 12 24 3c 96 ee 11 3c 39 8f 0d 3c
       0.0023359717 0.010014273 0.008906981 0.008640104
0001b0 52 26 1e 3c c0 b5 0a 3c 20 99 17 3c 89 09 70 bb
       0.009652691 0.008466184 0.009252816 -0.0036626777
0001c0 28 6d aa ba 5b 48 03 3c 00 f8 76 3c 3e e3 e4 3b
       -0.0013002502 0.008012856 0.015073776 0.006985097
0001d0 0c d1 c9 bb c3 62 1d 3c f2 da a4 3b 3c 4e 4e 3c
       -0.0061589535 0.009606066 0.005030983 0.012591895
0001e0 2c 1c 8d 3b 83 40 37 3c 8b d7 3e 3c 3a 84 e4 3b
       0.004306337 0.011184814 0.011648069 0.0069737704
0001f0 2d 74 1b bb 27 8c 6c 3c f6 60 53 bc d0 79 42 bc
       -0.002372037 0.014437712 -0.012901535 -0.011869863

network_body.linear_encoder.seq_layers.0.weight f4 [128, 128]
000000 b7 ee bf bd a1 c4 de 3d 4d f3 2f bd 87 7a 6a bc
       -0.09371703 0.10877348 -0.04295664 -0.014311439
000010 32 df 25 bc 34 08 4a bc e5 80 07 be 24 c7 51 3d
       -0.010124015 -0.012331057 -0.13232763 0.051215306
000020 5f df 10 bd 5c 56 08 bd 24 79 8e 3d 4a 87 29 be
       -0.035369273 -0.033285484 0.069566995 -0.16555515
000030 31 9e 9d bd ca fe 43 bd 2d 86 a4 bd 2b 72 11 bd
       -0.07696188 -0.047850408 -0.080334045 -0.03550927
000040 27 10 11 be 47 b9 f4 bd b9 4a 00 3e ab 0d ae bd
       -0.14166318 -0.11949401 0.12528504 -0.08498701
000050 19 c1 0e 3e 2c 4f 6d 3c 30 dc a5 bc b2 bd 00 be
       0.13940848 0.014484208 -0.020246595 -0.12572363
000060 02 d3 83 3d 7d c5 0e 3d ca 2d d4 bd 07 2b 8b 3c
       0.06436731 0.03485631 -0.10360296 0.01698829
000070 c9 2e 0b 3c 6f 01 d2 3b e3 70 a6 bd 3f 8a 61 bc
       0.008495041 0.0064088623 -0.08127 -0.013765871
000080 8d 55 6e bd 92 07 f1 bc 19 f7 09 3c d5 94 82 3c
       -0.058187056 -0.029422555 0.008420729 0.01594011
000090 37 43 16 bd 6d f9 9d bd 40 7c 21 3e 77 b5 89 bd
       -0.036685195 -0.0771359 0.15770054 -0.06724065
0000a0 1f aa 78 3c 81 99 80 3d a2 3e 80 3d ee 03 80 bd
       0.015177279 0.062792785 0.06261946 -0.062507495
0000b0 1d 9f cf 3d 2e 0d c0 bc 0c dc 04 3d 59 e1 9e bd
       0.1013777 -0.023443785 0.032436416 -0.077578254
0000c0 18 6c 6f 3c c3 34 81 bd a6 0d 86 bd e9 ff e6 3c
       0.014613174 -0.063088916 -0.06545572 0.0281982
0000d0 1d 28 15 3e c9 17 20 3e 24 57 98 3d 90 02 c1 bd
       0.14566083 0.15634073 0.07438496 -0.09424317
0000e0 86 67 cb 3d 44 ff 87 bd 4f 5a 8f bc df 94 11 3d
       0.09931855 -0.06640485 -0.017499117 0.035542365
0000f0 b4 c2 e5 3d fd a7 0a 3d 40 44 81 ba 18 43 70 3d
       0.11218777 0.033851612 -0.0009862259 0.058657736
000100 ef 7c 43 be 03 68 93 3d 9e 11 a2 3d b7 23 3b 3a
       -0.19090627 0.07197573 0.079135165 0.0007138806
000110 49 21 2a bd 04 d1 35 be ac e7 06 3d 0f fd f1 3c
       -0.04153565 -0.17755514 0.032935783 0.029539613
000120 6a ef 5d 3b 3d 2c 44 3d b1 e2 54 bd 82 4e 08 3e
       0.0033864626 0.04789375 -0.051974002 0.13311198
000130 97 0c 5c 3c 1f f1 71 3c 85 7d 8c 3c a4 9e 4f 3e
       0.013430736 0.01476696 0.017149696 0.2027536
000140 5c 83 de 3b 6d 1e f6 3d fd 13 af 3c a9 a6 2a 3e
       0.0067905616 0.12017522 0.021371836 0.16665138
000150 65 7e 56 bd 4c 8a e4 bd b1 43 03 bd d3 94 c2 bd
       -0.052366633 -0.111591905 -0.032046977 -0.09501042
000160 b3 ae 9f bd 8b 0d 26 bc 8b bd ea bd 18 ad 07 bd
       -0.07796993 -0.010135065 -0.11461934 -0.03312406
000170 ca 8f b8 bd d2 ec 2d be 1b 8e cd 3d 0b df ea 3c
       -0.090118006 -0.16984871 0.1003687 0.028670808
000180 fa b3 8d 3c eb e5 f2 3b 8c ae 7f bd 02 e5 b7 3d
       0.017297734 0.0074126623 -0.06242232 0.08979227
000190 c0 2b db bd 52 b0 6e 3d c6 9e 96 3d 4f 8e 02 bd
       -0.10701704 0.05827362 0.073545024 -0.031873997
0001a0 ca 6a 30 3d eb af 2e be 96 fc ba 3d 46 d7 29 ba
       0.043070592 -0.17059295 0.09130208 -0.00064789166
0001b0 e3 70 d9 3d 3a 57 5a 3c 7a 77 0f 3e 0f 01 ee 3d
       0.106172346 0.0133264605 0.1401042 0.11621296
0001c0 a2 ae 52 3d e7 68 26 be 9c 6e 8d bd 96 81 eb bc
       0.051436074 -0.16250955 -0.06905863 -0.028748315
0001d0 48 16 d0 bd 73 8d 26 3d a9 38 29 bd fe 03 b6 bd
       -0.101605 0.04066224 -0.0413138 -0.0888748
0001e0 2b d9 46 3a bc 7a 25 3d 20 76 dc 3a 6f 22 99 bd
       0.0007585461 0.04040025 0.0016819872 -0.07477271
0001f0 2f 75 b4 bd 93 16 9d 3d 15 8f b6 3d 06 13 f9 bc
       -0.088114135 0.07670321 0.089140095 -0.030404579
000200 d0 8e db bd b7 f7 e7 3d 23 19 74 3d c0 86 6e bd
       -0.10720599 0.11326545 0.059594285 -0.058233976
000210 76 16 35 bd 6e e3 cb 3d eb 95 9c 3c 01 26 05 3d
       -0.044210874 0.09955488 0.019114455 0.032506946
000220 ba e8 37 3e 85 e5 84 bc 5d c5 9e 3d 8f ce b5 3c
       0.17959872 -0.016222725 0.07752488 0.022193221
000230 76 05 bc bd d4 99 cb 3d 27 1c f7 bc be 4c 46 bd
       -0.09180729 0.0994145 -0.030164791 -0.04841303
000240 e1 3c 93 3d 11 61 55 3d 0a 02 bf 3d bf c5 13 bd
       0.07189346 0.052094523 0.09326561 -0.036077257
000250 97 fe 47 3e 7b 99 ea bd 2c 21 2b ba 03 87 7a bd
       0.19530712 -0.11455055 -0.00065280753 -0.061163913
000260 51 bf 06 3d e2 12 c0 3c c1 41 b0 bd 2e 52 06 3d
       0.032897297 0.023446504 -0.086062916 0.032793216
000270 2c 37 59 bd b6 34 81 3e 1c 17 c7 bd b6 0d fc 3d
       -0.05303113 0.25235528 -0.09721205 0.12307303
000280 8f 73 35 3c 50 07 a2 bd f3 be 3f 3c 4d 2f dd 3d
       0.011074915 -0.07911551 0.011703241 0.108000375
000290 e5 de 0c 3e 9c 32 20 bd 84 51 01 3e bd ca 4f 3d
       0.13756903 -0.039110765 0.12628752 0.050730456
0002a0 5c f1 20 be 7d 62 1f bd 17 2b 05 be f2 09 2b bd
       -0.15717071 -0.038912285 -0.13004719 -0.04175753
0002b0 15 a0 9c bd 8a 42 47 3d cb 7d 6c 3d 41 b2 0f 3d
       -0.07647721 0.04864744 0.057737153 0.035082106
0002c0 53 b9 61 3c 42 f4 22 3d 7d 99 4c bd b6 1c d6 bc
       0.013777095 0.039783724 -0.049951065 -0.026136737
0002d0 bf 90 9d 3d 76 68 2e be 39 b4 36 be d0 48 88 3d
       0.07693624 -0.17032036 -0.17842187 0.06654513
0002e0 e4 41 83 bd 3e fc 86 3d 08 dd 11 3e 2d e7 a4 bb
       -0.06409052 0.0659108 0.14244473 -0.005032441
0002f0 78 11 72 bd 02 7d 99 3d 3a b0 90 3d 6d f1 a3 bd
       -0.05909869 0.074945465 0.070648625 -0.08005033
000300 fc fb 11 3e ae 31 6b 3d e2 af 0d be 5e 88 01 bd
       0.1425628 0.057420425 -0.13836625 -0.03162419
000310 73 7f b4 3c ee 96 e3 bd c8 89 e0 bd 47 94 a3 bc
       0.022033429 -0.11112772 -0.1096378 -0.019968165
000320 f7 02 90 bd b7 9f 2d be de 2c 07 bd 33 e7 80 3d
       -0.070318155 -0.16955458 -0.033001773 0.06294098
000330 13 e7 6c bd 64 d6 f3 3c 31 db 32 3e b9 1a 0e be
       -0.057837557 0.029765315 0.17466427 -0.13877381
000340 13 3a 32 bc ee e2 92 3d 64 7f 96 3d e7 55 cf bd
       -0.010878104 0.0717219 0.073485166 -0.101238064
000350 00 0c 81 bd 40 87 87 3d 4d 9f 06 3e c0 c0 51 bd
       -0.06301117 0.06617594 0.13146706 -0.05120921
000360 1a 53 60 bd 03 2d 81 3c c3 94 1c bd 52 00 93 bd
       -0.05476675 0.015768534 -0.038227808 -0.071777955
000370 4a a7 67 bd 25 9b dc 3d d5 71 b4 3c a6 89 17 bd
       -0.056556024 0.10771779 0.022026936 -0.036996506
000380 14 02 04 bc f8 36 9d 3d 80 1c 8f 3c 0b f0 9a bc
       -0.008057136 0.076765 0.017469645 -0.01891329
000390 91 e4 4f 3d 86 5f 6c 3d 88 7b 7f 3d 88 7f f1 3b
       0.050755087 0.057708286 0.062373668 0.0073699392
0003a0 67 ef 0a 3e 23 e1 c7 3c 73 73 5b 3d 0a fc 5e 3e
       0.13567887 0.024399346 0.053576898 0.21775833
0003b0 1f 82 92 bd 31 4c 93 3d 22 b3 4d 3d cf 3b 7f 3e
       -0.07153725 0.07192267 0.050219662 0.24925159
0003c0 15 67 de 3d 6f 57 8c 3c e6 ce da bc 13 11 e7 3d
       0.10859505 0.017131535 -0.026709985 0.112825535
0003d0 34 29 48 3d b4 4f 97 3d ab 47 19 3d 7a a9 b6 3c
       0.04886742 0.07388249 0.037421864 0.02229761
0003e0 43 7c 2d bd 54 04 ab bc 98 7e 07 3e d2 45 07 3d
       -0.042354833 -0.020876087 0.13231885 0.03302557
0003f0 df cc 44 3d 81 09 33 3e 47 e2 af 3d a2 31 ab bd
       0.048046943 0.17484094 0.08588081 -0.08359076

network_body.linear_encoder.seq_layers.2.bias f4 [128]
000000 e4 d7 63 3b 80 9f 16 3c a7 26 27 3b 5c 10 ca bb
       0.0034766132 0.009193301 0.0025505216 -0.006166501
000010 22 13 bc ba cf 34 41 3c 72 85 4e 3a ea 21 02 3c
       -0.0014348964 0.011792376 0.0007878161 0.007942656
000020 99 33 3f 3c 26 ea 05 3c 84 de a3 ba c9 b8 40 3b
       0.011670017 0.008173501 -0.0012502228 0.0029407016
000030 07 e9 0f 3a 2e 1a 34 3c 94 86 08 3c 47 4e 15 3b
       0.0005489741 0.01099257 0.008332867 0.0022782253
000040 70 72 9f 3b 7e f1 03 3c 8b d0 54 3c 06 23 ce 3b
       0.004865937 0.008053182 0.012989174 0.006290796
000050 47 b3 21 3c 9d dc 29 3c 37 0e f3 3b 0a 1c 41 3c
       0.009869403 0.01036754 0.007417466 0.01178647
000060 45 36 39 3b 75 a8 61 3c 58 fc 21 3c 88 36 3b 3c
       0.0028261107 0.013773073 0.009886824 0.0114265755
000070 6b 6c 46 3b 83 e0 4e 3c 8a cc 36 3c be 8d 51 3c
       0.0030277024 0.01262677 0.011157164 0.012790142
000080 71 05 20 3c 93 01 62 3c 30 f6 db ba ed 33 40 3b
       0.009766922 0.013794321 -0.0016781744 0.0029327825
000090 be 3f 88 ba 33 f4 21 3c b2 15 e5 3b 8f 30 0d 3b
       -0.0010394973 0.009884882 0.0069911117 0.0021543836
0000a0 c0 33 0a 3c d2 3b 2a 3c c7 ef c0 3b ee b8 32 3c
       0.00843519 0.010390239 0.0058879587 0.0109083485
0000b0 00 31 f0 3a 03 aa a6 3a 49 76 12 3c 59 8a 48 ba
       0.001832515 0.0012715462 0.008939334 -0.000765001
0000c0 56 55 22 3c 59 c4 49 3c d8 ad 52 3c 7a 9d 30 3b
       0.009908041 0.012314879 0.01285883 0.0026949332
0000d0 99 b3 42 3c 4c 4c 16 3c ca 23 20 39 3c 60 db 3b
       0.01188364 0.009173464 0.00015272122 0.0066948216
0000e0 34 6a 2d 3c 0b 25 02 3a 91 4f 4a 3c 7f 33 1b 3c
       0.010584403 0.0004964626 0.012348072 0.009472727
0000f0 00 c0 4a 3c c9 0d 60 3b 7c b5 42 3c 5a 1e 2e 3c
       0.012374878 0.0034187904 0.01188409 0.010627354
000100 8d cb 41 3c 4e 5d 0e 3c 30 d6 40 3c d3 f4 aa 3b
       0.011828315 0.008689238 0.011769816 0.0052171736
000110 1a 03 38 3c eb 19 bf 3b f7 eb 26 3c 27 c5 18 3c
       0.011231208 0.005831947 0.010188094 0.0093243485
000120 cf 4d 48 3c 47 02 25 3c 22 a2 24 3a 87 4a 39 3c
       0.012225582 0.010071344 0.0006280263 0.011309273
000130 92 df e7 3b 0e fa 5c 3c 19 b9 92 3a 49 7e a8 38
       0.007076212 0.013487352 0.0011194079 8.034387e-05
000140 b0 36 54 3c 93 92 cd 3b 8e a8 2a 3a fa 95 90 bb
       0.012952492 0.0062735765 0.0006510102 -0.00441241
000150 c9 fb 4b bb 5e 21 49 bb c0 1c 5d 3c 5e 7d 16 3c
       -0.0031125417 -0.0030690054 0.013495624 0.009185163
000160 a4 9a 19 bb 37 d7 ad ba ea 71 15 3c 95 3b 09 3c
       -0.002343812 -0.0013262992 0.0091213975 0.008376022
000170 e9 c0 ab 3b 63 b6 8e 3b d5 7d e3 3b 98 9e 5a 3c
       0.0052415025 0.0043552383 0.0069424906 0.013343476
000180 f7 b2 a3 ba 15 83 69 3b 4d ce 0c 3c a0 a1 6e 3b
       -0.0012489249 0.003563111 0.008594108 0.0036412254
000190 11 00 2f 3b 04 ba 07 ba 67 75 ef 3a 67 00 4a 3c
       0.002670292 -0.000517756 0.0018269242 0.0123291975
0001a0 e6 28 09 3c c0 99 d5 3b 1f ff 61 bb e2 82 fb 3b
       0.008371567 0.0065185726 -0.003448434 0.0076755146
0001b0 98 4b 42 3c c1 f3 bf ba 61 75 a8 3b 0f d0 97 ba
       0.011858843 -0.0014644788 0.005140946 -0.0011582392
0001c0 cb f5 01 3c a4 d0 4c 3c ab e8 07 3c 55 49 4e 3c
       0.007932137 0.012500916 0.008295218 0.012590726
0001d0 87 8c e5 3a 1a 0b 28 3b 1f b1 15 3c 4b 78 36 3c
       0.0017513194 0.0025641383 0.009136467 0.0111370785
0001e0 ca 6d 12 3c 7f a6 4b 3c 6d 14 5e ba ae a6 97 ba
       0.008937309 0.0124298325 -0.00084716716 -0.001157006
0001f0 42 e5 53 3c 5a 02 24 3c b9 ac 30 3c b0 fd 48 3c
       0.012933077 0.010010326 0.010783368 0.012267515

network_body.linear_encoder.seq_layers.2.weight f4 [128, 128]
000000 d9 24 ce bd a5 47 46 3e 2b db b9 3d 29 36 ad 3d
       -0.10065622 0.19363268 0.09075006 0.08457596
000010 6e 66 58 bd a7 b5 82 3e d8 35 08 be 4c 69 c5 3d
       -0.05283206 0.25529215 -0.1330179 0.096392244
000020 48 01 0d 3d 78 95 e9 3d 94 09 be bc 8f 71 b6 bd
       0.03442505 0.11405462 -0.023197927 -0.08908378
000030 61 5c f8 bd b8 cb 71 3d 25 72 55 bb 01 8c 3a bd
       -0.12126995 0.059032172 -0.0032569256 -0.045543674
000040 53 a3 c9 bc 15 49 8a 3d 1a 2c 9f bd d0 6c 61 3d
       -0.024614012 0.067522205 -0.077720836 0.055035412
000050 f5 91 f7 bd 1b 37 1c be 99 a7 cb bd a1 89 ef bd
       -0.12088386 -0.15255396 -0.09944076 -0.116961725
000060 79 18 40 3e 74 44 29 be 56 04 f9 3b f1 ea 90 bd
       0.18759336 -0.16530019 0.007599394 -0.070760615
000070 a4 1b 27 bd 32 23 28 3e e9 87 d5 bd 5a 1f ff 3d
       -0.040797845 0.16419676 -0.104263134 0.12457152
000080 68 77 9e 3d 98 6f 2c bd 90 3b e4 bd 68 bc 14 be
       0.07737619 -0.04209861 -0.11144173 -0.14524996
000090 ad ac 26 bd 90 02 0f 3e a2 02 f1 3c 06 ca 2e 3e
       -0.04069202 0.13965821 0.0294202 0.17069253
0000a0 59 a0 3b be 33 c8 8a 3d 26 47 92 bd c8 ba a3 3d
       -0.18322887 0.06776466 -0.07142477 0.0799461
0000b0 bf 33 33 3d 09 da 5c bb bc 3b ea 3d 8f 14 ee bd
       0.04375052 -0.0033699295 0.11437175 -0.11625015
0000c0 81 12 1c 3c f1 32 ec 3d fa 63 25 bd 01 24 18 3e
       0.009525896 0.11533154 -0.04037855 0.14857484
0000d0 31 e5 1d b8 df 65 03 be 59 ac f9 3d ee 1d 07 be
       -3.7645168e-05 -0.1283183 0.12191076 -0.13195011
0000e0 ac 67 1f 3e 7a b9 59 3d 34 30 53 bc a2 25 2f 3e
       0.15566891 0.0531554 -0.0128899105 0.171042
0000f0 c4 51 2d 3d 84 65 3a be 26 58 cb bd 32 2c ff 3b
       0.042314306 -0.18202788 -0.09928922 0.007787251
000100 af c2 a9 3c 0b a4 d1 bc ed ed 12 bc 28 3b 9e bc
       0.020722715 -0.025590917 -0.008967859 -0.019315317
000110 db b6 cd 3d 4f 70 9c bd b6 05 9d bc af cd 5a 3b
       0.100446425 -0.07638609 -0.019167762 0.0033386757
000120 e0 98 bf 3c dd 54 98 bd cf cf 76 3c e8 3c 57 3d
       0.023388326 -0.074380614 0.015064194 0.05254832
000130 8a ec a0 3d 08 89 97 3d 7a 25 d1 bd 17 76 d9 bc
       0.07857616 0.073991835 -0.10212226 -0.026545567
000140 77 7f 8a 3d 03 ad 2e 3d 96 5b 92 3d d2 fb dd 3c
       0.06762593 0.042645466 0.07146375 0.027097616
000150 45 51 fc 3c 2a 69 b1 3d ec f3 b5 bc d0 5d 92 3d
       0.030800471 0.086626366 -0.022211038 0.071467996
000160 d3 97 23 bd 22 e9 e7 bc 82 53 cf bc c6 3c 22 bc
       -0.039939713 -0.028309409 -0.025308374 -0.009902185
000170 fe 1d 2a 3d b9 57 26 3d ab ed c1 3d f8 7f 3a 3d
       0.04153251 0.040611003 0.0946916 0.045532197
000180 c2 bb d0 3d f0 6a ef bd aa d2 18 bc ee 29 b0 bd
       0.10192062 -0.116903186 -0.00932757 -0.086017475
000190 cc 35 4f bc f7 98 48 be 0d 0a 8b 3d d3 41 71 3d
       -0.0126471035 -0.19589601 0.067890264 0.058900665
0001a0 4c 3e c3 bc 07 cf 04 bd 93 ca 53 3d 61 0e 2a 3d
       -0.023833416 -0.032424 0.05170686 0.04151762
0001b0 73 d0 4d bb f3 b2 d4 3c 18 a2 31 3e 2c 1e 17 3e
       -0.0031404763 0.025964236 0.1734699 0.14757603
0001c0 86 fd 92 3d db d6 08 3e ef 21 89 bd 1c 79 f7 bd
       0.07177262 0.13363211 -0.066959254 -0.12083647
0001d0 15 55 04 3d 8f 81 02 bb 78 6d 81 3d 45 42 a9 3c
       0.032307703 -0.0019913649 0.06319708 0.020661483
0001e0 7d eb c4 3c 32 eb 53 be c0 ab 35 bd c1 7d 3b 3d
       0.02403807 -0.20695189 -0.044353247 0.045774225
0001f0 d4 66 12 3d 1f fe 9f bc bc d8 69 bd 6d d1 df bd
       0.035742596 -0.019530354 -0.05709146 -0.10928617
000200 2d f3 c0 bd ea c7 73 bc e7 fc 5f bd 68 1e 02 3e
       -0.09421382 -0.014879206 -0.054684546 0.12706912
000210 e1 34 b5 3d 29 b6 4f 3d 05 e3 ba bc 8b e9 8c bd
       0.088479765 0.05071083 -0.02281333 -0.06880482
000220 51 37 7c 3d 84 4e c7 bd ce f5 63 be 32 da 4b bd
       0.06157619 -0.097317725 -0.22261736 -0.049768634
000230 7e 0c ae bc 19 40 c4 3d 9e c8 ab bd b7 a9 19 be
       -0.021246191 0.09582538 -0.08387874 -0.15006147
000240 54 75 4c 3e 10 7d ab 3d cc cc 97 3d 28 b0 11 3e
       0.19966632 0.08373463 0.07412109 0.14227355
000250 46 da 98 bd d2 25 30 3d b0 23 aa bd cc 5f 3f 3d
       -0.07463507 0.04300482 -0.08307588 0.04672222
000260 67 45 c7 3d 35 11 08 be 02 9a ef 3d 65 cc 4a 3d
       0.09730034 -0.13287814 0.116992965 0.049511332
000270 77 1e 66 bd 61 74 00 3e f0 6f 89 3d 7d 64 90 bd
       -0.056181397 0.12544395 0.067108035 -0.070504166
000280 b3 62 92 bd b9 f9 bf bd 43 cc 1f be ad 4b 92 3c
       -0.07147732 -0.09373803 -0.15605263 0.01785835
000290 44 70 c8 bd 4f de 58 3e 39 ac e5 3d 03 30 ec 3d
       -0.09787038 0.21178554 0.112144895 0.11532595
0002a0 d3 72 e3 3c 4e ed 97 bd 66 f1 e9 bc 80 fd 9b bd
       0.027764713 -0.07418309 -0.02855749 -0.07616711
0002b0 c3 05 88 bd 80 ba 32 be 98 7c c7 3c 17 b7 7c 3d
       -0.06641724 -0.17453957 0.024351403 0.061698046
0002c0 a1 54 1b 3e 3a 8f dc bd 1d 3c 98 bd f2 e0 e2 3d
       0.15169002 -0.10769506 -0.07433341 0.11078061
0002d0 4a f2 39 3c f3 c1 d1 3d 3d e3 c4 3c ca 11 b4 3d
       0.01134927 0.10242071 0.024034137 0.087924555
0002e0 e8 18 2e be b4 26 e0 3c 7d 02 b1 bc d0 88 12 bd
       -0.17001688 0.027362205 -0.021607632 -0.035775006
0002f0 b8 7d 12 bd 06 5b ce 3c ab b5 2d bd f1 aa a5 bd
       -0.035764426 0.025189888 -0.04240958 -0.08089245
000300 d2 3b 15 3d 0f 48 93 3b 5d 57 01 3e eb ae 2d be
       0.036434002 0.004494674 0.12630983 -0.16961257
000310 87 62 b2 bd f4 d5 82 3d 25 f9 fd bd 9c 3e 68 bc
       -0.08710199 0.063884646 -0.12401036 -0.0141750835
000320 d2 ca 2c bd 40 df a4 bd 61 1f 58 bd bc 05 f7 bb
       -0.042185612 -0.08050394 -0.0527643 -0.0075385254
000330 e4 d9 c7 ba bd d5 26 3e 58 95 19 bd 6f a8 b7 bd
       -0.0015247432 0.16292472 -0.03749594 -0.08967673
000340 97 dd 75 3d 29 19 73 bd 6c 59 ec bd 37 b3 76 3d
       0.060025778 -0.059350166 -0.11540493 0.060229506
000350 a0 4f de bd 05 4a 54 bd a8 74 06 3e 91 00 53 3d
       -0.10855031 -0.051828403 0.13130438 0.051514212
000360 17 23 13 be 2f 35 3b 3e b4 fb 74 3e 9d 0c d2 bb
       -0.14368854 0.18282007 0.23924142 -0.006410195
000370 7f 1a 84 bd c4 fd 0b 3d da e9 86 3d c9 50 3d bd
       -0.06450366 0.034177557 0.065875724 -0.04621962
000380 ae ad 05 be fd 0e 4a 3b 8c 42 dc bd f1 2c 39 be
       -0.13054535 0.0030831688 -0.1075488 -0.1808355
000390 3c 9b b1 3d a8 17 76 3c 85 cf 1a be 30 05 06 bd
       0.08672187 0.0150202885 -0.15118225 -0.03271979
0003a0 c9 06 ed bc 0c fd 28 bd 0e 99 59 3c 87 9a f2 3b
       -0.0289339 -0.04125695 0.01328112 0.007403675
0003b0 37 fa d6 3c 21 cf 01 be bc ad 53 bd e8 1d de 3c
       0.026242359 -0.1267667 -0.051679358 0.02711387
0003c0 29 fb 6f 3d 9d dd d9 bd 52 0f d3 bd 04 9e 42 3d
       0.058589134 -0.106379725 -0.103056565 0.047513977
0003d0 3f f4 e7 3c e3 89 a5 ba 05 f5 03 bd 74 1e e4 bc
       0.028314708 -0.0012629594 -0.03221609 -0.027846552
0003e0 1a 10 1b be d4 02 b6 3d 39 5a 9b 3d 91 e4 15 bd
       -0.15142861 0.08887258 0.07585568 -0.03659493
0003f0 4d 08 18 bd 5b 76 5f 3c 0f de e7 bc 60 e6 98 3d
       -0.03711729 0.013639058 -0.028304128 0.074658155

network_body.visual_processors.0.conv_layers.0.bias f4 [16]
000000 22 20 4e bd 75 42 f3 bc 53 9e 7b bc 18 fa 76 3d
       -0.050323613 -0.029694775 -0.015357572 0.0602971
000010 f3 04 a5 3a d9 73 65 bd 35 58 6b 3d 49 be 3a bd
       0.0012589976 -0.056018684 0.057457168 -0.045591626
000020 14 3b 84 3d d8 c8 58 3d 3d 0d 16 3d 42 a5 0a 3c
       0.06456581 0.052925915 0.03663372 0.008462252
000030 b0 76 4d 3d f7 22 d4 bc 0c 58 48 3d 6f 5a 07 3d
       0.050162017 -0.025895579 0.048912093 0.03304523

network_body.visual_processors.0.conv_layers.0.weight f4 [16, 3, 8, 8]
000000 f3 16 d6 bc dd 70 33 bd e2 ea 50 3c 5b f3 04 bc
       -0.02613399 -0.043808807 0.012751313 -0.008114661
000010 20 f6 de ba c5 9c 79 3d 03 55 24 bd 3e 0a 4c 3b
       -0.0017010607 0.060940523 -0.040120136 0.0031134035
000020 c6 c2 4b 3c 87 95 01 bd 1d 1d 9b 3c c9 bb 82 bd
       0.012436574 -0.03163674 0.01893478 -0.063834734
000030 56 29 8e bd 87 4f b1 3c c8 41 3a bc 56 2d fa 3c
       -0.06941478 0.021644367 -0.011368223 0.030539196
000040 e3 c5 15 bd 61 11 73 3d 7a 6b d7 bc 8e 45 26 ba
       -0.036565673 0.059342746 -0.026296366 -0.0006342762
000050 91 b4 0b bd 06 52 a8 3b c0 54 2f 3d ad a3 9c bc
       -0.03410775 0.005136731 0.042805433 -0.019121015
000060 b9 8f 24 3c ad e1 f6 bc ab d3 53 bd 72 c4 0d bb
       0.010044032 -0.030136907 -0.051715534 -0.0021631983
000070 45 92 30 bd c7 42 90 bd 43 b7 58 3d 99 c0 9b bd
       -0.043108243 -0.07043987 0.052909147 -0.076050945
000080 9e 35 4f 3d 49 51 61 bc 1f b4 b0 3c 0c c6 69 3d
       0.050588243 -0.01375229 0.021570263 0.057073638
000090 77 e8 88 bd 1c 28 3f 3d 51 c7 24 3b 01 62 0c bd
       -0.06684964 0.04666911 0.0025143216 -0.03427315
0000a0 16 f8 31 bd b0 d0 53 bd 02 dd 24 bd 52 77 c2 3c
       -0.043449484 -0.05171269 -0.040249832 0.023738537
0000b0 a5 3f a7 3b 5f cd 86 3c b2 b6 59 3d 58 f9 a3 bc
       0.0051040226 0.01645535 0.053152747 -0.020016357
0000c0 e2 32 77 bd 12 15 71 3d 06 0e 98 bd 40 cf a1 3c
       -0.06035126 0.058857985 -0.0742455 0.019752145
0000d0 19 83 d9 bc c3 51 b0 3c 2a 45 5b 3d 50 24 e0 3c
       -0.02655177 0.021523362 0.053532757 0.027361065
0000e0 98 26 01 3d c1 bf 9c bd a2 87 85 bd 75 64 35 bd
       0.031530946 -0.07653762 -0.065200105 -0.044285256
0000f0 d7 11 df bc e4 55 b7 bc c1 6d a5 bd e9 c0 62 bd
       -0.027230186 -0.022379823 -0.080775745 -0.055359755
000100 ab 04 eb 3b be a5 46 3d 38 5b 8b bd e4 17 04 3d
       0.0071721873 0.048497908 -0.06804508 0.032249346
000110 8e c5 aa bd 61 d8 9d bd a1 31 af bb da 1c 58 bd
       -0.08338462 -0.077072866 -0.0053464924 -0.05276189
000120 ab 57 5e bd 8a bf 18 bd 0b 63 15 3c f4 dc 16 bd
       -0.054282825 -0.03729204 0.009117852 -0.03683181
000130 dd 32 47 bd 64 c2 36 3d 35 8e 2b bd 09 34 9e 3a
       -0.04863249 0.04461898 -0.041883666 0.0012069951
000140 ef 0f 4a bd b5 ff 32 bc 3e 9e c8 bc d3 4b a8 3c
       -0.0493316 -0.010925223 -0.024489518 0.020543968
000150 6b 16 ff 3c 62 0e 09 3c 56 e4 d0 3c 21 de a6 bd
       0.03113862 0.008365246 0.025499504 -0.081478365
000160 60 68 56 bc eb 4c 1a bd 1a 4a 77 bd a5 44 43 bd
       -0.013086408 -0.03767101 -0.060373403 -0.047672886
000170 c4 27 62 bd a2 0e 82 bc fb 5b fb 3b f1 f0 2b bc
       -0.055213705 -0.015876118 0.007670877 -0.010494457
000180 3b b5 38 bc d5 42 35 3d 91 79 98 3c f7 e1 84 bd
       -0.011273677 0.04425319 0.018612655 -0.06488412
000190 28 23 dd 3c 3e f4 b0 3b 0a 5f 32 bd 6c d9 53 bc
       0.026994303 0.0054002097 -0.043547668 -0.012930255
0001a0 7b bf 1d bd f1 bd 4b bd 12 3a 51 bd dd 77 37 3c
       -0.038512688 -0.04974169 -0.05108077 0.011198011
0001b0 ce ac d6 bb 19 5a 52 bc d8 98 54 bd 4f 2f 66 bc
       -0.0065513616 -0.012838864 -0.051903576 -0.014049365
0001c0 9c f9 52 3d c5 45 23 bd 0f 40 8c bc 08 58 aa bd
       0.051507577 -0.03986146 -0.01712039 -0.08317572
0001d0 19 1d f6 3c ff 61 4e 3b 2a 49 0f bd df 7e 9d bd
       0.030043172 0.0031491516 -0.034981884 -0.07690214
0001e0 b9 91 74 3d 78 6c 84 3c b3 0b 50 bc 1e 3b 95 3c
       0.059709284 0.016165003 -0.012698102 0.018216666
0001f0 57 e6 f0 bc 49 84 b2 bc 11 c5 ca bc ab a7 96 bd
       -0.02940671 -0.021791594 -0.024752172 -0.07356199
000200 41 05 8f bc 4f 23 e4 3c e0 54 17 3d fe af fa bc
       -0.01745856 0.027848868 0.036946177 -0.030601498
000210 b2 1c 47 3d 38 b0 99 bd 32 4a 23 bd 6b 5c 08 bd
       0.04861135 -0.07504314 -0.03986568 -0.03329126
000220 c2 d6 ee 3b a2 cd e2 3c d1 2f 00 bc 54 43 96 bd
       0.0072887847 0.027685944 -0.0078239 -0.073370606
000230 81 e6 a3 ba f5 96 a3 3c 8b 1c 9a bd 90 d6 a3 bd
       -0.0012504609 0.019969443 -0.075249754 -0.07999909
000240 d0 a4 94 bd b3 cb fe bc 64 f5 12 3c 27 53 ae bb
       -0.07257998 -0.03110299 0.0089696385 -0.005319971
000250 d8 87 74 bb 8f 27 5b 3d ec 64 ab bc 01 ed 53 3d
       -0.0037312414 0.053504523 -0.020922147 0.051739696
000260 97 6c bb 3c e2 6f 2a 3d f2 4b a2 bb 14 ba 4d bd
       0.022878928 0.041610606 -0.004952901 -0.050226286
000270 04 9a 81 3c 77 cb 49 bd b2 23 ab bd 0b c6 ee 3c
       0.01582051 -0.049266305 -0.08356418 0.029147169
000280 11 bd 1b bd 73 cc a1 bd dd f3 0d bd d2 4d 03 bc
       -0.038022105 -0.07900324 -0.034656394 -0.008014159
000290 7b dc 11 bc 4e fb 6c bd 5a 29 5c 3b f1 1b 28 3c
       -0.008902664 -0.05785685 0.0033593983 0.010260568
0002a0 9f c9 a6 bc 94 ed 1a 3d e2 19 93 bd 35 92 88 3c
       -0.020359812 0.03782423 -0.07182671 0.01667128
0002b0 ed b7 73 3d b3 22 a6 bc c1 48 7b bd 2b 32 53 bc
       0.059501577 -0.020280218 -0.06134868 -0.012890379
0002c0 6a a5 31 3d f9 46 fe bc c1 49 57 bd f7 51 7c bd
       0.04337064 -0.031039702 -0.05256057 -0.061601605
0002d0 13 e4 3a 3c 94 f5 18 3d d6 ff a0 3b 7c 9e 0b bd
       0.011406916 0.037343577 0.0049133105 -0.03408669
0002e0 76 18 21 3d f3 5d 0d bb 2f 2c 7a bd 44 c5 00 3d
       0.03932997 -0.002157089 -0.061077293 0.031438127
0002f0 54 6c 90 bc 23 34 b2 bc 23 cb a4 bd be dd b5 3c
       -0.01762978 -0.021753376 -0.08046558 0.022200461
000300 e2 01 aa 3d c6 89 94 3d 2d db 5e bc 85 6f 2c bb
       0.0830114 0.07252841 -0.01360206 -0.0026311588
000310 ab 4c b3 3d 58 81 97 3c 44 d8 24 bd 4e fe 90 3d
       0.08754858 0.018494293 -0.04024531 0.07079755
000320 19 f8 a9 3d 9e 7a 99 3d dc 4f 9c 3d a6 1e b2 bc
       0.08299274 0.074940905 0.076324195 -0.02174313
000330 74 00 a5 3c 19 77 27 3d aa 08 3d bd 06 f0 10 3d
       0.020141818 0.040885065 -0.04615084 0.035385154
000340 40 a3 94 3d e9 12 10 3c fa 04 0d 3d 6b 02 ad 3d
       0.072577 0.008793571 0.034428574 0.08447727
000350 74 1f 2a 3d b0 a9 ae 3b af a8 79 3d 7d 2e 17 bd
       0.041533902 0.005330287 0.060951885 -0.03690957
000360 aa 1f 88 3d e7 f7 34 3d ee 25 a2 3d 3f ae ab 3d
       0.066466644 0.04418173 0.07917391 0.08382844
000370 fc 34 5b bc d7 bb a2 bb 62 00 e0 bc fa 9f 9b 3d
       -0.013379332 -0.00496624 -0.027343933 0.075988725
000380 7d b0 71 3d b0 63 42 3d 1b 7d 63 3d c1 ff 2e bd
       0.059006203 0.04745835 0.05553923 -0.042724375
000390 d8 81 07 3c cd e4 07 3d a6 69 80 3c c9 db a7 3d
       0.008270703 0.033177186 0.015675377 0.081962176
0003a0 75 38 ca 3b 3f e6 7e 3d 98 ed 1f bd 5c ae 80 3d
       0.006171281 0.0622313 -0.039044946 0.062832564
0003b0 aa 23 d1 3c c7 65 8f 3c 67 01 30 3d b0 3b 3f 3d
       0.025529701 0.017504586 0.042970087 0.04668778
0003c0 14 d2 19 bd a2 59 d7 3c 61 d6 f9 3c 3a 23 b6 bc
       -0.03755386 0.026287857 0.030497732 -0.022233594
0003d0 01 75 1e 3d a0 b4 99 3d 0d 51 5f 3d 8f 89 60 3c
       0.038685802 0.075051546 0.054520655 0.0137046715
0003e0 ae bf b3 3c c2 f9 96 3c ba 3a 89 bc 78 71 ae 3d
       0.021941986 0.01842964 -0.016751636 0.08517736
0003f0 81 0a 9c 3d 73 cf 1e 3d 8f 08 4b bd eb 69 f0 3c
       0.07619191 0.038772058 -0.04956871 0.02934738

network_body.visual_processors.0.conv_layers.2.bias f4 [32]
000000 20 b9 70 bd e8 d5 97 3c a6 60 e0 3c 0d 67 ff 3c
       -0.0587703 0.018534616 0.027389836 0.031177068
000010 53 fa 04 3d 1d ee 5d 3d 41 95 b1 3c 28 c4 84 bc
       0.03246529 0.05418216 0.021677615 -0.016206816
000020 90 8c 42 3d 3b 7d 18 3d 60 04 89 3d 71 1b 2e 3d
       0.047497332 0.037228804 0.066902876 0.04250664
000030 25 36 1f bd b8 54 bd 3c 10 09 84 bd a4 ba ed bc
       -0.038869996 0.023111686 -0.06447041 -0.029019661
000040 f9 51 8f bc 29 ca 60 3d 5b cf 21 bd fc 32 99 3b
       -0.017495142 0.054880295 -0.03950439 0.0046752673
000050 36 7c 64 3d 0f 75 b5 bc fe d2 90 3d 34 e3 cc bc
       0.05578252 -0.022150544 0.070714936 -0.025010683
000060 be 7f 81 3c 01 aa 36 bd 29 7f 3e bd 2b 2d bf bc
       0.015807983 -0.044595722 -0.046507988 -0.023336967
000070 d4 7a 2d 3c 10 95 3a 3d 89 c7 ef bc 45 f1 51 3d
       0.010588367 0.045552313 -0.02926995 0.051255483

network_body.visual_processors.0.conv_layers.2.weight f4 [32, 16, 4, 4]
000000 38 97 6b 3d ae fc 58 ba 14 14 19 3c 65 33 96 3c
       0.05751726 -0.00082773983 0.009343166 0.018335054
000010 e9 ea 63 bd 64 94 ed bb 4d d9 a9 bc 50 2d 9a bb
       -0.05564395 -0.0072503556 -0.0207335 -0.0047051087
000020 d3 78 d7 bc 04 4c 5a 3d c6 48 2d bd db 8a 28 bc
       -0.02630273 0.05329515 -0.04230573 -0.010287012
000030 94 6e 31 3d b8 2d 8f bb d3 1d d7 bc 18 15 69 3d
       0.043318346 -0.004369464 -0.026259338 0.056904882
000040 d5 59 92 3c 9e 4e 2b bd 65 2a 0e bd 24 c2 4e 3d
       0.0178651 -0.041823022 -0.0347084 0.050478116
000050 9f de 1f 3c 30 ba 1e 39 d2 2c 54 bd 8f 1f 78 bd
       0.009757667 0.00015137414 -0.051800556 -0.06057697
000060 7a d3 6b bc ee 6e 14 3d 11 60 64 bb 41 d1 86 3b
       -0.014393682 0.036238603 -0.00348473 0.0041143005
000070 bc e1 34 3d bb ae 9a bc 20 48 4e bd 11 84 9f 3c
       0.04416059 -0.018882146 -0.050361753 0.019472154
000080 d9 65 85 bd ec 39 e0 3a fb 13 3d bd 96 4e 41 3d
       -0.065135665 0.0017107106 -0.046161633 0.047194086
000090 f4 47 c7 bc 4b e5 7c bd 56 ed d9 bc d4 1b 21 3d
       -0.024326302 -0.06174211 -0.026602428 0.03933318
0000a0 fe 03 a5 3c f6 cb 1c bd 72 6d 2a bd ad bd ea 3c
       0.020143505 -0.03828045 -0.04160828 0.028654898
0000b0 4b 47 1e bd 9c 25 ea bc 87 94 66 bd e9 3b fe 3a
       -0.03864221 -0.028582387 -0.05629399 0.0019396517
0000c0 f5 14 13 bd 3c 8c 53 bd fa ff 5d 3c 4d 33 82 3d
       -0.035908658 -0.05164741 0.013549799 0.06357441
0000d0 6e 69 67 bd e8 de e6 3c 4a c4 35 3d 32 dc 90 3b
       -0.05649703 0.028182462 0.04437665 0.0044207806
0000e0 09 4b 97 bb e0 45 48 3d 36 ee 7d 3c 3f 84 83 bc
       -0.004617099 0.048894763 0.015498688 -0.01605427
0000f0 69 aa 45 bd 7a 83 06 bd 70 fe e8 3c 60 1f d9 3c
       -0.04825822 -0.03284023 0.028441638 0.026504219
000100 eb b2 32 bd ce 81 ed 3b af 44 0f bd c8 d2 11 3d
       -0.04362766 0.00724814 -0.03497761 0.035601407
000110 6c d1 02 bd 7c 18 32 bb 74 9f 7a 3d 12 6e b8 bc
       -0.031938 -0.0027175238 0.061187223 -0.022513423
000120 3a 09 cb 3c 84 91 d7 bc 52 b5 59 bd c4 01 63 bd
       0.024784673 -0.026314504 -0.053151436 -0.055421606
000130 a6 2e 4c bb 12 40 41 3d 1b 5c ab 3b 18 30 4e bd
       -0.0031155734 0.047180243 0.0052294857 -0.050338835
000140 27 2b 13 3c ef 8e 32 bc 86 b8 7d 3d 7c d4 90 3c
       0.008982456 -0.010898336 0.061943553 0.017679445
000150 a0 02 67 3d 34 75 f3 3c 9c b0 91 bc f6 87 04 bd
       0.056398988 0.029718973 -0.01778441 -0.032356225
000160 9e 00 40 3d 3e fb 3c bd e4 4e 74 3d 62 6e a0 bc
       0.04687559 -0.04613804 0.05964555 -0.019583885
000170 16 40 10 bd ce 91 09 3d 11 5f 57 bc 3b 0b 0d bd
       -0.035217367 0.033586316 -0.013145224 -0.03443454
000180 8a 97 8d 3c ea 93 5f 3d 5b 43 ac 3a 00 83 61 bd
       0.017284174 0.05458442 0.0013142632 -0.055056572
000190 38 99 72 3d dd 04 1e 3c f4 0e 19 3d 9d ce 3f bc
       0.059228152 0.009644714 0.037367776 -0.011706975
0001a0 e1 6d 4b bd b4 0e 30 3d 15 17 00 bd ee 5d 6e 3d
       -0.049665336 0.042982772 -0.031272013 0.058195047
0001b0 72 c9 a6 bb ff 0c 75 bd 8d 78 58 bc 2d ad 71 bd
       -0.005089932 -0.059826847 -0.013212335 -0.059003044
0001c0 cc 7a 95 3c fc c3 1f 3d 2f 45 47 bc ac 32 21 3d
       0.01824703 0.039005265 -0.012162491 0.039354965
0001d0 56 f0 44 3d 1c c0 4f bd 31 2d 66 bc e1 cf ce bc
       0.048080765 -0.05072032 -0.01404886 -0.025245609
0001e0 4d 65 1b bc 4b 3e 57 bd c4 e0 8d bd 8e e4 85 3b
       -0.009484601 -0.05254964 -0.06927636 0.0040860837
0001f0 a4 ca c4 3a f1 d3 4a 3c 51 37 b6 bc 50 06 d7 bb
       0.0015014005 0.012379632 -0.022243174 -0.006562032
000200 c4 44 00 3c 1b 9a 72 3d 03 ae ac bc 3d f2 62 bd
       0.007828895 0.059228998 -0.021079069 -0.055406798
000210 73 86 cf bc d1 a9 47 bc a5 ad 7d 3c b0 8c f6 3c
       -0.025332665 -0.0121864835 0.015483295 0.030096382
000220 01 0e 70 bb 07 2c 0d 3d cc 6c 0c bc 14 3c 80 3d
       -0.003662944 0.034465816 -0.008570861 0.06261459
000230 ab 29 d6 bc 99 d3 17 3d 5d 42 0e 3d a3 b8 a7 3c
       -0.026142916 0.03706703 0.034731258 0.020473784
000240 d9 53 25 bd 62 c0 7d 3d 88 5e 80 3c 4f 6d 02 bb
       -0.040363166 0.06195105 0.015670076 -0.0019901579
000250 96 1b 86 bc d6 cf d1 bc 96 0b 16 3c 2f 63 33 bd
       -0.016370576 -0.0256118 0.009158036 -0.04379576
000260 e0 ce ad 3c 1a 97 81 3d a5 0c 2b 3d bc 4d 49 bd
       0.02121681 0.063276485 0.041760106 -0.0491464
000270 15 28 35 bc 5d b4 1f bc 28 40 89 3c c3 07 ac 3b
       -0.01105692 -0.009747592 0.016754225 0.0052499487
000280 bf 1f 70 3d 33 f1 69 3d ac 5d 3c bd b9 ac 14 bd
       0.058624025 0.05711479 -0.04598777 -0.036297534
000290 a7 1c 5d bd 09 fa 68 3d 2f 37 22 3c 7f 17 4a 3d
       -0.053982403 0.056879077 0.009900852 0.049338814
0002a0 d8 1e ae 3b 2f ad 56 bd fe 06 7a 3d ea 7a 3e bc
       0.0053137355 -0.052411254 0.061041825 -0.011625985
0002b0 c4 70 2c 3b 6a f8 d5 bc 4c fb 1b bd ff 2b 76 3d
       0.002631233 -0.02611943 -0.038081452 0.06010055
0002c0 a3 4c e7 3c 37 5c 8e bc 1d c7 21 3d 4f 44 87 bb
       0.028234785 -0.017377956 0.03949653 -0.004128016
0002d0 01 11 ac 3c e1 37 bb bb cb d8 5b 3d 5c 5b 3e 39
       0.021004202 -0.0057134484 0.053673547 0.00018153846
0002e0 83 8f 07 bd e7 33 5b bd 73 d8 d1 bc 94 22 2e bc
       -0.033095848 -0.053516295 -0.025615906 -0.010628361
0002f0 8d a1 db bc 6e 47 57 bd 1b b4 b2 bc 22 df 3b 3c
       -0.026810432 -0.052558355 -0.021814397 0.011466773
000300 29 19 44 bd 1e 93 7d bd 25 84 21 bd a7 3b 27 bd
       -0.047875557 -0.06190788 -0.039432663 -0.040828373
000310 ab 28 4e 3d 46 af 6a bc f9 a9 7d bd db 24 22 3d
       0.050331753 -0.014324015 -0.061929677 0.03958593
000320 51 d2 9f bc 86 c4 f2 3b 23 ca d2 bc 5e 5f 4d bd
       -0.019509466 0.0074086813 -0.025731152 -0.050139777
000330 1b bf 0a 3d 37 49 36 3d 2d 98 32 bd a3 1b 50 3d
       0.03387366 0.044503417 -0.043602157 0.050807606
000340 80 fd 18 bd ba 61 67 3d db aa a1 bc 00 11 0a 3d
       -0.03735113 0.056489684 -0.01973479 0.03370762
000350 d6 87 20 3d 56 9d 1d 3d 8a 27 2b bd d4 22 15 3d
       0.039192043 0.038480125 -0.041785754 0.036410168
000360 b6 8e 2c bc 69 99 54 bd 8c 24 26 3d c0 f9 61 3d
       -0.010532072 -0.051904116 0.040562198 0.05516982
000370 a4 45 8f bc 3a 3d 86 bc e4 c6 b7 3b 12 0b 58 bc
       -0.017489262 -0.016386617 0.0056084264 -0.013186233
000380 5d f6 c1 bc 15 c3 6d 3d f9 39 0a bd e9 73 a7 bc
       -0.023677045 0.058047373 -0.033746693 -0.020441012
000390 c3 55 37 3d 8e 99 43 3b d3 ce 21 3d 47 ec 4f bc
       0.044759523 0.0029846164 0.039503884 -0.01269061
0003a0 75 0a 72 3d 35 31 18 bd af 20 d4 3b 77 0b 21 3d
       0.059092004 -0.037156302 0.0064736228 0.039317574
0003b0 d3 c0 ad bc a5 e5 61 3d ad 36 01 3c 14 39 81 bd
       -0.02121011 0.055150647 0.007886571 -0.06309715
0003c0 fd 8e fa 3b db 91 ca bc f9 dc 8b bc db 06 da 3c
       0.00764644 -0.024727752 -0.017073141 0.026614597
0003d0 1f e4 af 3c a5 79 72 3d ee 81 14 bd db 75 00 3d
       0.021471081 0.05919804 -0.036256723 0.031362396
0003e0 0a a0 47 bb 39 57 7f bd 47 18 f8 3c 3b 36 24 3d
       -0.003046038 -0.06233904 0.030285014 0.04009078
0003f0 ea 36 19 bd 83 e3 48 bd 71 4b 68 3d 52 02 4f bd
       -0.037405886 -0.049045097 0.05671257 -0.050539322

network_body.visual_processors.0.dense.0.bias f4 [128]
000000 18 af 46 3c 61 62 8a 3a 12 3c 65 bc 39 89 8d 3b
       0.012126707 0.0010557884 -0.013991373 0.0043193367
000010 41 5b 6c bc 96 ef 18 bc cd 09 7a bc eb c6 5e bc
       -0.0144260535 -0.0093344655 -0.015261126 -0.01359723
000020 00 51 f1 3b 3a 1b 4a bc fc 9c d3 b6 c5 28 51 3c
       0.0073643923 -0.012335593 -6.3065654e-06 0.012766068
000030 31 df a2 bb e3 39 42 3c d6 32 7b 3c 73 e9 0c 3c
       -0.004970454 0.011854622 0.015331944 0.0086005805
000040 6f 31 a5 3b ff 4b 1b bb d5 28 2c bc 00 25 08 3a
       0.0050412933 -0.002369642 -0.010507782 0.0005193502
000050 06 ac 03 bc 5a d9 cb 3b f6 55 52 bc 02 d1 6d 3c
       -0.008036619 0.0062209787 -0.0128378775 0.014515163
000060 87 ec 16 38 51 ec 6f bb 64 9d 02 bb ad 2a 30 3c
       3.598307e-05 -0.0036609361 -0.0019930238 0.010752362
000070 f3 42 4b bb 5e 3d 31 3c 68 e6 0c bc 30 96 d9 39
       -0.0031015247 0.010817854 -0.008599855 0.00041501364
000080 f5 6c 37 3c b4 b4 63 3c e3 35 31 bc cc 97 75 bb
       0.011195411 0.013898063 -0.01081607 -0.0037474511
000090 e1 c6 15 3c 3a ba 4c 3c 0d 8c 0f bc 1c 9d 4f 3b
       0.009141655 0.012495572 -0.008761418 0.0031679338
0000a0 ae 42 d9 3a 5a f3 fb 3b 0a 2d 59 3c 4d 51 5d 3c
       0.0016575658 0.007688922 0.013255367 0.013508153
0000b0 0e 30 6f bc c9 c4 cd ba 45 37 4e 3c 15 60 61 3c
       -0.0145988595 -0.0015698905 0.0125864195 0.013755818
0000c0 e3 8c 96 3a 56 a7 45 3c 46 ce da 3b 19 46 77 3b
       0.0011486079 0.012063822 0.0066774217 0.003773099
0000d0 c2 5d 66 39 c4 55 0c bc e6 9e 78 bc c5 7c 44 3c
       0.00021969437 -0.00856537 -0.015174603 0.011992638
0000e0 11 a4 60 bb c0 b6 cf 3b 49 cc 2c bb f9 38 3f bc
       -0.0034277479 0.006338924 -0.002636688 -0.011671298
0000f0 4f f9 a0 bb 9a 61 64 3c 10 52 e0 3b 3b e6 6c 3c
       -0.0049125324 0.013939286 0.00684572 0.014459188
000100 cd 49 ac 3b a4 6f 15 3c c2 34 29 bc 7a a2 88 3c
       0.005257821 0.0091208555 -0.01032752 0.016679037
000110 12 a0 4d bb 6b a6 09 3c c7 fa 20 3c 3c aa 4c 3c
       -0.0031375927 0.008401494 0.009825415 0.012491759
000120 08 cb 11 3b 18 0b 88 3b f4 ad ec 3b c0 67 1a 39
       0.002224626 0.004151713 0.0072228853 0.00014725234
000130 1c 19 3d 3c b0 9e 94 3b 6c 0b 46 3b 0e f6 50 bb
       0.011541631 0.0045355186 0.003021921 -0.0031884941
000140 00 a1 5b bc ca 16 f8 3b 89 4a c0 3b be ad 52 3c
       -0.013405085 0.007571076 0.0058682603 0.012858806
000150 7d 6d c2 3b 1d 49 41 3c ca 06 2c 3c dd 60 52 3c
       0.005933462 0.011797217 0.0104996655 0.012840477
000160 ed f8 63 3c bd 41 80 3c 27 6e 15 3c 56 9d 33 bc
       0.013914329 0.015656346 0.009120501 -0.010962805
000170 9d 6b 9a 3b e5 14 6a 3c 17 e1 3c 3c 6a b2 a0 39
       0.0047125355 0.014287208 0.011528275 0.00030650507
000180 3b f3 31 3a 5f 94 b4 3b 36 65 c4 ba 30 8b 1e bc
       0.00067882583 0.0055108513 -0.0014983776 -0.00967674
000190 76 5b 7d bc 35 97 bb bb 85 ed 35 3c f8 18 4c 3c
       -0.0154637005 -0.0057248124 0.011103992 0.012457125
0001a0 7c d0 2f ba 5e 2d 1e 3c c7 4a 5f bb 7a 90 66 3c
       -0.0006706787 0.009654371 -0.003407167 0.014072532
0001b0 78 01 ba 3b 86 27 39 3c bc 8e ed 3b 6b 61 8c 3b
       0.0056764446 0.011300927 0.0072496813 0.004284074
0001c0 47 d8 6b bc 4e 86 19 3c 45 d3 85 3b 3e 4e 71 3c
       -0.014394826 0.0093704 0.004084023 0.014728127
0001d0 69 94 73 bc 7b 99 80 3c 71 40 5e bc 90 37 75 3c
       -0.014866927 0.015698185 -0.013565169 0.01496686
0001e0 d3 01 b5 bb 83 47 72 3c d5 fd 51 3b 15 f9 07 3c
       -0.005523899 0.014787558 0.0032042165 0.008299132
0001f0 f3 41 ec 3b 76 a5 76 3c 82 44 5b bc a7 ba e1 bb
       0.00721001 0.015054097 -0.013383033 -0.006888706
